…
params, percentage of total params, MACs, percentage of total MACs, FLOPS, percentage of total FLOPs

Note: 1. A module can have torch.nn.module or torch.nn.functional to compute logits (e.g. CrossEntropyLoss). 
 They are not counted as submodules in calflops and not to be printed out. However they make up the difference between a parent's MACs and the sum of its submodules'.
2. Number of floating-point operations is a theoretical estimation, thus FLOPS computed using that could be larger than the maximum system throughput.

ResNet(
  11.2 M = 100% Params, 151.6 GMACs = 100% MACs, 303.88 GFLOPS = 100% FLOPs
  (conv1): Conv2d(9.41 K = 0.084% Params, 9.87 GMACs = 6.5072% MACs, 19.73 GFLOPS = 6.4927% FLOPs, 3, 64, kernel_size=(7, 7), stride=(2, 2), padding=(3, 3), bias=False)
  (bn1): BatchNorm2d(128 = 0.0011% Params, 0 MACs = 0% MACs, 134.22 MFLOPS = 0.0442% FLOPs, 64, eps=1e-05, momentum=0.1, affine=True, track_running_stats=True)
  (relu): ReLU(0 = 0% Params, 0 MACs = 0% MACs, 67.11 MFLOPS = 0.0221% FLOPs, inplace=True)
  (maxpool): MaxPool2d(0 = 0% Params, 0 MACs = 0% MACs, 67.11 MFLOPS = 0.0221% FLOPs, kernel_size=3, stride=2, padding=1, dilation=1, ceil_mode=False)
  (layer1): Sequential(
    147.97 K = 1.3213% Params, 38.65 GMACs = 25.4978% MACs, 77.51 GFLOPS = 25.5072% FLOPs
    (0): BasicBlock(
      73.98 K = 0.6607% Params, 19.33 GMACs = 12.7489% MACs, 38.76 GFLOPS = 12.7536% FLOPs
      (conv1): Conv2d(36.86 K = 0.3292% Params, 9.66 GMACs = 6.3744% MACs, 19.33 GFLOPS = 6.3602% FLOPs, 64, 64, kernel_size=(3, 3), stride=(1, 1), padding=(1, 1), bias=False)
      (bn1): BatchNorm2d(128 = 0.0011% Params, 0 MACs = 0% MACs, 33.55 MFLOPS = 0.011% FLOPs, 64, eps=1e-05, momentum=0.1, affine=True, track_running_stats=True)
      (relu): ReLU(0 = 0% Params, 0 MACs = 0% MACs, 33.55 MFLOPS = 0.011% FLOPs, inplace=True)
      (conv2): Conv2d(36.86 K = 0.3292% Params, 9.66 GMACs = 6.3744% MACs, 19.33 GFLOPS = 6.3602% FLOPs, 64, 64, kernel_size=(3, 3), stride=(1, 1), padding=(1, 1), bias=False)
      (bn2): BatchNorm2d(128 = 0.0011% Params, 0 MACs = 0% MACs, 33.55 MFLOPS = 0.011% FLOPs, 64, eps=1e-05, momentum=0.1, affine=True, track_running_stats=True)
    )
    (1): BasicBlock(
      73.98 K = 0.6607% Params, 19.33 GMACs = 12.7489% MACs, 38.76 GFLOPS = 12.7536% FLOPs
      (conv1): Conv2d(36.86 K = 0.3292% Params, 9.66 GMACs = 6.3744% MACs, 19.33 GFLOPS = 6.3602% FLOPs, 64, 64, kernel_size=(3, 3), stride=(1, 1), padding=(1, 1), bias=False)
      (bn1): BatchNorm2d(128 = 0.0011% Params, 0 MACs = 0% MACs, 33.55 MFLOPS = 0.011% FLOPs, 64, eps=1e-05, momentum=0.1, affine=True, track_running_stats=True)
      (relu): ReLU(0 = 0% Params, 0 MACs = 0% MACs, 33.55 MFLOPS = 0.011% FLOPs, inplace=True)
      (conv2): Conv2d(36.86 K = 0.3292% Params, 9.66 GMACs = 6.3744% MACs, 19.33 GFLOPS = 6.3602% FLOPs, 64, 64, kernel_size=(3, 3), stride=(1, 1), padding=(1, 1), bias=False)
      (bn2): BatchNorm2d(128 = 0.0011% Params, 0 MACs = 0% MACs, 33.55 MFLOPS = 0.011% FLOPs, 64, eps=1e-05, momentum=0.1, affine=True, track_running_stats=True)
    )
  )
  (layer2): Sequential(
    525.57 K = 4.6932% Params, 34.36 GMACs = 22.6647% MACs, 68.84 GFLOPS = 22.6528% FLOPs
    (0): BasicBlock(
      230.14 K = 2.0551% Params, 15.03 GMACs = 9.9158% MACs, 30.13 GFLOPS = 9.9158% FLOPs
      (conv1): Conv2d(73.73 K = 0.6584% Params, 4.83 GMACs = 3.1872% MACs, 9.66 GFLOPS = 3.1801% FLOPs, 64, 128, kernel_size=(3, 3), stride=(2, 2), padding=(1, 1), bias=False)
      (bn1): BatchNorm2d(256 = 0.0023% Params, 0 MACs = 0% MACs, 16.78 MFLOPS = 0.0055% FLOPs, 128, eps=1e-05, momentum=0.1, affine=True, track_running_stats=True)
      (relu): ReLU(0 = 0% Params, 0 MACs = 0% MACs, 16.78 MFLOPS = 0.0055% FLOPs, inplace=True)
      (conv2): Conv2d(147.46 K = 1.3167% Params, 9.66 GMACs = 6.3744% MACs, 19.33 GFLOPS = 6.3602% FLOPs, 128, 128, kernel_size=(3, 3), stride=(1, 1), padding=(1, 1), bias=False)
      (bn2): BatchNorm2d(256 = 0.0023% Params, 0 MACs = 0% MACs, 16.78 MFLOPS = 0.0055% FLOPs, 128, eps=1e-05, momentum=0.1, affine=True, track_running_stats=True)
      (downsample): Sequential(
        8.45 K = 0.0754% Params, 536.87 MMACs = 0.3541% MACs, 1.09 GFLOPS = 0.3589% FLOPs
        (0): Conv2d(8.19 K = 0.0732% Params, 536.87 MMACs = 0.3541% MACs, 1.07 GFLOPS = 0.3533% FLOPs, 64, 128, kernel_size=(1, 1), stride=(2, 2), bias=False)
        (1): BatchNorm2d(256 = 0.0023% Params, 0 MACs = 0% MACs, 16.78 MFLOPS = 0.0055% FLOPs, 128, eps=1e-05, momentum=0.1, affine=True, track_running_stats=True)
      )
    )
    (1): BasicBlock(
      295.42 K = 2.6381% Params, 19.33 GMACs = 12.7489% MACs, 38.71 GFLOPS = 12.737% FLOPs
      (conv1): Conv2d(147.46 K = 1.3167% Params, 9.66 GMACs = 6.3744% MACs, 19.33 GFLOPS = 6.3602% FLOPs, 128, 128, kernel_size=(3, 3), stride=(1, 1), padding=(1, 1), bias=False)
      (bn1): BatchNorm2d(256 = 0.0023% Params, 0 MACs = 0% MACs, 16.78 MFLOPS = 0.0055% FLOPs, 128, eps=1e-05, momentum=0.1, affine=True, track_running_stats=True)
      (relu): ReLU(0 = 0% Params, 0 MACs = 0% MACs, 16.78 MFLOPS = 0.0055% FLOPs, inplace=True)
      (conv2): Conv2d(147.46 K = 1.3167% Params, 9.66 GMACs = 6.3744% MACs, 19.33 GFLOPS = 6.3602% FLOPs, 128, 128, kernel_size=(3, 3), stride=(1, 1), padding=(1, 1), bias=False)
      (bn2): BatchNorm2d(256 = 0.0023% Params, 0 MACs = 0% MACs, 16.78 MFLOPS = 0.0055% FLOPs, 128, eps=1e-05, momentum=0.1, affine=True, track_running_stats=True)
    )
  )
  (layer3): Sequential(
    2.1 M = 18.7498% Params, 34.36 GMACs = 22.6647% MACs, 68.78 GFLOPS = 22.6335% FLOPs
    (0): BasicBlock(
      919.04 K = 8.2068% Params, 15.03 GMACs = 9.9158% MACs, 30.1 GFLOPS = 9.9047% FLOPs
      (conv1): Conv2d(294.91 K = 2.6335% Params, 4.83 GMACs = 3.1872% MACs, 9.66 GFLOPS = 3.1801% FLOPs, 128, 256, kernel_size=(3, 3), stride=(2, 2), padding=(1, 1), bias=False)
      (bn1): BatchNorm2d(512 = 0.0046% Params, 0 MACs = 0% MACs, 8.39 MFLOPS = 0.0028% FLOPs, 256, eps=1e-05, momentum=0.1, affine=True, track_running_stats=True)
      (relu): ReLU(0 = 0% Params, 0 MACs = 0% MACs, 8.39 MFLOPS = 0.0028% FLOPs, inplace=True)
      (conv2): Conv2d(589.82 K = 5.267% Params, 9.66 GMACs = 6.3744% MACs, 19.33 GFLOPS = 6.3602% FLOPs, 256, 256, kernel_size=(3, 3), stride=(1, 1), padding=(1, 1), bias=False)
      (bn2): BatchNorm2d(512 = 0.0046% Params, 0 MACs = 0% MACs, 8.39 MFLOPS = 0.0028% FLOPs, 256, eps=1e-05, momentum=0.1, affine=True, track_running_stats=True)
      (downsample): Sequential(
        33.28 K = 0.2972% Params, 536.87 MMACs = 0.3541% MACs, 1.08 GFLOPS = 0.3561% FLOPs
        (0): Conv2d(32.77 K = 0.2926% Params, 536.87 MMACs = 0.3541% MACs, 1.07 GFLOPS = 0.3533% FLOPs, 128, 256, kernel_size=(1, 1), stride=(2, 2), bias=False)
        (1): BatchNorm2d(512 = 0.0046% Params, 0 MACs = 0% MACs, 8.39 MFLOPS = 0.0028% FLOPs, 256, eps=1e-05, momentum=0.1, affine=True, track_running_stats=True)
      )
    )
    (1): BasicBlock(
      1.18 M = 10.5431% Params, 19.33 GMACs = 12.7489% MACs, 38.68 GFLOPS = 12.7287% FLOPs
      (conv1): Conv2d(589.82 K = 5.267% Params, 9.66 GMACs = 6.3744% MACs, 19.33 GFLOPS = 6.3602% FLOPs, 256, 256, kernel_size=(3, 3), stride=(1, 1), padding=(1, 1), bias=False)
      (bn1): BatchNorm2d(512 = 0.0046% Params, 0 MACs = 0% MACs, 8.39 MFLOPS = 0.0028% FLOPs, 256, eps=1e-05, momentum=0.1, affine=True, track_running_stats=True)
      (relu): ReLU(0 = 0% Params, 0 MACs = 0% MACs, 8.39 MFLOPS = 0.0028% FLOPs, inplace=True)
      (conv2): Conv2d(589.82 K = 5.267% Params, 9.66 GMACs = 6.3744% MACs, 19.33 GFLOPS = 6.3602% FLOPs, 256, 256, kernel_size=(3, 3), stride=(1, 1), padding=(1, 1), bias=False)
      (bn2): BatchNorm2d(512 = 0.0046% Params, 0 MACs = 0% MACs, 8.39 MFLOPS = 0.0028% FLOPs, 256, eps=1e-05, momentum=0.1, affine=True, track_running_stats=True)
    )
  )
  (layer4): Sequential(
    8.39 M = 74.9536% Params, 34.36 GMACs = 22.6647% MACs, 68.75 GFLOPS = 22.6238% FLOPs
    (0): BasicBlock(
      3.67 M = 32.7996% Params, 15.03 GMACs = 9.9158% MACs, 30.08 GFLOPS = 9.8992% FLOPs
      (conv1): Conv2d(1.18 M = 10.5339% Params, 4.83 GMACs = 3.1872% MACs, 9.66 GFLOPS = 3.1801% FLOPs, 256, 512, kernel_size=(3, 3), stride=(2, 2), padding=(1, 1), bias=False)
      (bn1): BatchNorm2d(1.02 K = 0.0091% Params, 0 MACs = 0% MACs, 4.19 MFLOPS = 0.0014% FLOPs, 512, eps=1e-05, momentum=0.1, affine=True, track_running_stats=True)
      (relu): ReLU(0 = 0% Params, 0 MACs = 0% MACs, 4.19 MFLOPS = 0.0014% FLOPs, inplace=True)
      (conv2): Conv2d(2.36 M = 21.0678% Params, 9.66 GMACs = 6.3744% MACs, 19.33 GFLOPS = 6.3602% FLOPs, 512, 512, kernel_size=(3, 3), stride=(1, 1), padding=(1, 1), bias=False)
      (bn2): BatchNorm2d(1.02 K = 0.0091% Params, 0 MACs = 0% MACs, 4.19 MFLOPS = 0.0014% FLOPs, 512, eps=1e-05, momentum=0.1, affine=True, track_running_stats=True)
      (downsample): Sequential(
        132.1 K = 1.1796% Params, 536.87 MMACs = 0.3541% MACs, 1.08 GFLOPS = 0.3547% FLOPs
        (0): Conv2d(131.07 K = 1.1704% Params, 536.87 MMACs = 0.3541% MACs, 1.07 GFLOPS = 0.3533% FLOPs, 256, 512, kernel_size=(1, 1), stride=(2, 2), bias=False)
        (1): BatchNorm2d(1.02 K = 0.0091% Params, 0 MACs = 0% MACs, 4.19 MFLOPS = 0.0014% FLOPs, 512, eps=1e-05, momentum=0.1, affine=True, track_running_stats=True)
      )
    )
    (1): BasicBlock(
      4.72 M = 42.1539% Params, 19.33 GMACs = 12.7489% MACs, 38.67 GFLOPS = 12.7246% FLOPs
      (conv1): Conv2d(2.36 M = 21.0678% Params, 9.66 GMACs = 6.3744% MACs, 19.33 GFLOPS = 6.3602% FLOPs, 512, 512, kernel_size=(3, 3), stride=(1, 1), padding=(1, 1), bias=False)
      (bn1): BatchNorm2d(1.02 K = 0.0091% Params, 0 MACs = 0% MACs, 4.19 MFLOPS = 0.0014% FLOPs, 512, eps=1e-05, momentum=0.1, affine=True, track_running_stats=True)
      (relu): ReLU(0 = 0% Params, 0 MACs = 0% MACs, 4.19 MFLOPS = 0.0014% FLOPs, inplace=True)
      (conv2): Conv2d(2.36 M = 21.0678% Params, 9.66 GMACs = 6.3744% MACs, 19.33 GFLOPS = 6.3602% FLOPs, 512, 512, kernel_size=(3, 3), stride=(1, 1), padding=(1, 1), bias=False)
      (bn2): BatchNorm2d(1.02 K = 0.0091% Params, 0 MACs = 0% MACs, 4.19 MFLOPS = 0.0014% FLOPs, 512, eps=1e-05, momentum=0.1, affine=True, track_running_stats=True)
    )
  )
  (avgpool): AdaptiveAvgPool2d(0 = 0% Params, 0 MACs = 0% MACs, 2.1 MFLOPS = 0.0007% FLOPs, output_size=(1, 1))
  (fc): Linear(22.06 K = 0.197% Params, 1.41 MMACs = 0.0009% MACs, 2.82 MFLOPS = 0.0009% FLOPs, in_features=512, out_features=43, bias=True)
)
---------------------------------------------------------------------------------------------------
Epoch 1/30: 100%|██████████| 42/42 [00:14<00:00,  2.97it/s]
Epoch 1/30: 100%|██████████| 5/5 [00:01<00:00,  3.62it/s]
Epoch 1/30
Train Loss: 2.7438 Train Accuracy: 0.3511
Val Loss: 1.5870 Val Accuracy: 0.5372
…
params, percentage of total params, MACs, percentage of total MACs, FLOPS, percentage of total FLOPs

Note: 1. A module can have torch.nn.module or torch.nn.functional to compute logits (e.g. CrossEntropyLoss). 
 They are not counted as submodules in calflops and not to be printed out. However they make up the difference between a parent's MACs and the sum of its submodules'.
2. Number of floating-point operations is a theoretical estimation, thus FLOPS computed using that could be larger than the maximum system throughput.

ResNet(
  22.06 K = 100% Params, 151.6 GMACs = 100% MACs, 303.88 GFLOPS = 100% FLOPs
  (conv1): Conv2d(0 = 0% Params, 9.87 GMACs = 6.5072% MACs, 19.73 GFLOPS = 6.4927% FLOPs, 3, 64, kernel_size=(7, 7), stride=(2, 2), padding=(3, 3), bias=False)
  (bn1): BatchNorm2d(0 = 0% Params, 0 MACs = 0% MACs, 134.22 MFLOPS = 0.0442% FLOPs, 64, eps=1e-05, momentum=0.1, affine=True, track_running_stats=True)
  (relu): ReLU(0 = 0% Params, 0 MACs = 0% MACs, 67.11 MFLOPS = 0.0221% FLOPs, inplace=True)
  (maxpool): MaxPool2d(0 = 0% Params, 0 MACs = 0% MACs, 67.11 MFLOPS = 0.0221% FLOPs, kernel_size=3, stride=2, padding=1, dilation=1, ceil_mode=False)
  (layer1): Sequential(
    0 = 0% Params, 38.65 GMACs = 25.4978% MACs, 77.51 GFLOPS = 25.5072% FLOPs
    (0): BasicBlock(
      0 = 0% Params, 19.33 GMACs = 12.7489% MACs, 38.76 GFLOPS = 12.7536% FLOPs
      (conv1): Conv2d(0 = 0% Params, 9.66 GMACs = 6.3744% MACs, 19.33 GFLOPS = 6.3602% FLOPs, 64, 64, kernel_size=(3, 3), stride=(1, 1), padding=(1, 1), bias=False)
      (bn1): BatchNorm2d(0 = 0% Params, 0 MACs = 0% MACs, 33.55 MFLOPS = 0.011% FLOPs, 64, eps=1e-05, momentum=0.1, affine=True, track_running_stats=True)
      (relu): ReLU(0 = 0% Params, 0 MACs = 0% MACs, 33.55 MFLOPS = 0.011% FLOPs, inplace=True)
      (conv2): Conv2d(0 = 0% Params, 9.66 GMACs = 6.3744% MACs, 19.33 GFLOPS = 6.3602% FLOPs, 64, 64, kernel_size=(3, 3), stride=(1, 1), padding=(1, 1), bias=False)
      (bn2): BatchNorm2d(0 = 0% Params, 0 MACs = 0% MACs, 33.55 MFLOPS = 0.011% FLOPs, 64, eps=1e-05, momentum=0.1, affine=True, track_running_stats=True)
    )
    (1): BasicBlock(
      0 = 0% Params, 19.33 GMACs = 12.7489% MACs, 38.76 GFLOPS = 12.7536% FLOPs
      (conv1): Conv2d(0 = 0% Params, 9.66 GMACs = 6.3744% MACs, 19.33 GFLOPS = 6.3602% FLOPs, 64, 64, kernel_size=(3, 3), stride=(1, 1), padding=(1, 1), bias=False)
      (bn1): BatchNorm2d(0 = 0% Params, 0 MACs = 0% MACs, 33.55 MFLOPS = 0.011% FLOPs, 64, eps=1e-05, momentum=0.1, affine=True, track_running_stats=True)
      (relu): ReLU(0 = 0% Params, 0 MACs = 0% MACs, 33.55 MFLOPS = 0.011% FLOPs, inplace=True)
      (conv2): Conv2d(0 = 0% Params, 9.66 GMACs = 6.3744% MACs, 19.33 GFLOPS = 6.3602% FLOPs, 64, 64, kernel_size=(3, 3), stride=(1, 1), padding=(1, 1), bias=False)
      (bn2): BatchNorm2d(0 = 0% Params, 0 MACs = 0% MACs, 33.55 MFLOPS = 0.011% FLOPs, 64, eps=1e-05, momentum=0.1, affine=True, track_running_stats=True)
    )
  )
  (layer2): Sequential(
    0 = 0% Params, 34.36 GMACs = 22.6647% MACs, 68.84 GFLOPS = 22.6528% FLOPs
    (0): BasicBlock(
      0 = 0% Params, 15.03 GMACs = 9.9158% MACs, 30.13 GFLOPS = 9.9158% FLOPs
      (conv1): Conv2d(0 = 0% Params, 4.83 GMACs = 3.1872% MACs, 9.66 GFLOPS = 3.1801% FLOPs, 64, 128, kernel_size=(3, 3), stride=(2, 2), padding=(1, 1), bias=False)
      (bn1): BatchNorm2d(0 = 0% Params, 0 MACs = 0% MACs, 16.78 MFLOPS = 0.0055% FLOPs, 128, eps=1e-05, momentum=0.1, affine=True, track_running_stats=True)
      (relu): ReLU(0 = 0% Params, 0 MACs = 0% MACs, 16.78 MFLOPS = 0.0055% FLOPs, inplace=True)
      (conv2): Conv2d(0 = 0% Params, 9.66 GMACs = 6.3744% MACs, 19.33 GFLOPS = 6.3602% FLOPs, 128, 128, kernel_size=(3, 3), stride=(1, 1), padding=(1, 1), bias=False)
      (bn2): BatchNorm2d(0 = 0% Params, 0 MACs = 0% MACs, 16.78 MFLOPS = 0.0055% FLOPs, 128, eps=1e-05, momentum=0.1, affine=True, track_running_stats=True)
      (downsample): Sequential(
        0 = 0% Params, 536.87 MMACs = 0.3541% MACs, 1.09 GFLOPS = 0.3589% FLOPs
        (0): Conv2d(0 = 0% Params, 536.87 MMACs = 0.3541% MACs, 1.07 GFLOPS = 0.3533% FLOPs, 64, 128, kernel_size=(1, 1), stride=(2, 2), bias=False)
        (1): BatchNorm2d(0 = 0% Params, 0 MACs = 0% MACs, 16.78 MFLOPS = 0.0055% FLOPs, 128, eps=1e-05, momentum=0.1, affine=True, track_running_stats=True)
      )
    )
    (1): BasicBlock(
      0 = 0% Params, 19.33 GMACs = 12.7489% MACs, 38.71 GFLOPS = 12.737% FLOPs
      (conv1): Conv2d(0 = 0% Params, 9.66 GMACs = 6.3744% MACs, 19.33 GFLOPS = 6.3602% FLOPs, 128, 128, kernel_size=(3, 3), stride=(1, 1), padding=(1, 1), bias=False)
      (bn1): BatchNorm2d(0 = 0% Params, 0 MACs = 0% MACs, 16.78 MFLOPS = 0.0055% FLOPs, 128, eps=1e-05, momentum=0.1, affine=True, track_running_stats=True)
      (relu): ReLU(0 = 0% Params, 0 MACs = 0% MACs, 16.78 MFLOPS = 0.0055% FLOPs, inplace=True)
      (conv2): Conv2d(0 = 0% Params, 9.66 GMACs = 6.3744% MACs, 19.33 GFLOPS = 6.3602% FLOPs, 128, 128, kernel_size=(3, 3), stride=(1, 1), padding=(1, 1), bias=False)
      (bn2): BatchNorm2d(0 = 0% Params, 0 MACs = 0% MACs, 16.78 MFLOPS = 0.0055% FLOPs, 128, eps=1e-05, momentum=0.1, affine=True, track_running_stats=True)
    )
  )
  (layer3): Sequential(
    0 = 0% Params, 34.36 GMACs = 22.6647% MACs, 68.78 GFLOPS = 22.6335% FLOPs
    (0): BasicBlock(
      0 = 0% Params, 15.03 GMACs = 9.9158% MACs, 30.1 GFLOPS = 9.9047% FLOPs
      (conv1): Conv2d(0 = 0% Params, 4.83 GMACs = 3.1872% MACs, 9.66 GFLOPS = 3.1801% FLOPs, 128, 256, kernel_size=(3, 3), stride=(2, 2), padding=(1, 1), bias=False)
      (bn1): BatchNorm2d(0 = 0% Params, 0 MACs = 0% MACs, 8.39 MFLOPS = 0.0028% FLOPs, 256, eps=1e-05, momentum=0.1, affine=True, track_running_stats=True)
      (relu): ReLU(0 = 0% Params, 0 MACs = 0% MACs, 8.39 MFLOPS = 0.0028% FLOPs, inplace=True)
      (conv2): Conv2d(0 = 0% Params, 9.66 GMACs = 6.3744% MACs, 19.33 GFLOPS = 6.3602% FLOPs, 256, 256, kernel_size=(3, 3), stride=(1, 1), padding=(1, 1), bias=False)
      (bn2): BatchNorm2d(0 = 0% Params, 0 MACs = 0% MACs, 8.39 MFLOPS = 0.0028% FLOPs, 256, eps=1e-05, momentum=0.1, affine=True, track_running_stats=True)
      (downsample): Sequential(
        0 = 0% Params, 536.87 MMACs = 0.3541% MACs, 1.08 GFLOPS = 0.3561% FLOPs
        (0): Conv2d(0 = 0% Params, 536.87 MMACs = 0.3541% MACs, 1.07 GFLOPS = 0.3533% FLOPs, 128, 256, kernel_size=(1, 1), stride=(2, 2), bias=False)
        (1): BatchNorm2d(0 = 0% Params, 0 MACs = 0% MACs, 8.39 MFLOPS = 0.0028% FLOPs, 256, eps=1e-05, momentum=0.1, affine=True, track_running_stats=True)
      )
    )
    (1): BasicBlock(
      0 = 0% Params, 19.33 GMACs = 12.7489% MACs, 38.68 GFLOPS = 12.7287% FLOPs
      (conv1): Conv2d(0 = 0% Params, 9.66 GMACs = 6.3744% MACs, 19.33 GFLOPS = 6.3602% FLOPs, 256, 256, kernel_size=(3, 3), stride=(1, 1), padding=(1, 1), bias=False)
      (bn1): BatchNorm2d(0 = 0% Params, 0 MACs = 0% MACs, 8.39 MFLOPS = 0.0028% FLOPs, 256, eps=1e-05, momentum=0.1, affine=True, track_running_stats=True)
      (relu): ReLU(0 = 0% Params, 0 MACs = 0% MACs, 8.39 MFLOPS = 0.0028% FLOPs, inplace=True)
      (conv2): Conv2d(0 = 0% Params, 9.66 GMACs = 6.3744% MACs, 19.33 GFLOPS = 6.3602% FLOPs, 256, 256, kernel_size=(3, 3), stride=(1, 1), padding=(1, 1), bias=False)
      (bn2): BatchNorm2d(0 = 0% Params, 0 MACs = 0% MACs, 8.39 MFLOPS = 0.0028% FLOPs, 256, eps=1e-05, momentum=0.1, affine=True, track_running_stats=True)
    )
  )
  (layer4): Sequential(
    0 = 0% Params, 34.36 GMACs = 22.6647% MACs, 68.75 GFLOPS = 22.6238% FLOPs
    (0): BasicBlock(
      0 = 0% Params, 15.03 GMACs = 9.9158% MACs, 30.08 GFLOPS = 9.8992% FLOPs
      (conv1): Conv2d(0 = 0% Params, 4.83 GMACs = 3.1872% MACs, 9.66 GFLOPS = 3.1801% FLOPs, 256, 512, kernel_size=(3, 3), stride=(2, 2), padding=(1, 1), bias=False)
      (bn1): BatchNorm2d(0 = 0% Params, 0 MACs = 0% MACs, 4.19 MFLOPS = 0.0014% FLOPs, 512, eps=1e-05, momentum=0.1, affine=True, track_running_stats=True)
      (relu): ReLU(0 = 0% Params, 0 MACs = 0% MACs, 4.19 MFLOPS = 0.0014% FLOPs, inplace=True)
      (conv2): Conv2d(0 = 0% Params, 9.66 GMACs = 6.3744% MACs, 19.33 GFLOPS = 6.3602% FLOPs, 512, 512, kernel_size=(3, 3), stride=(1, 1), padding=(1, 1), bias=False)
      (bn2): BatchNorm2d(0 = 0% Params, 0 MACs = 0% MACs, 4.19 MFLOPS = 0.0014% FLOPs, 512, eps=1e-05, momentum=0.1, affine=True, track_running_stats=True)
      (downsample): Sequential(
        0 = 0% Params, 536.87 MMACs = 0.3541% MACs, 1.08 GFLOPS = 0.3547% FLOPs
        (0): Conv2d(0 = 0% Params, 536.87 MMACs = 0.3541% MACs, 1.07 GFLOPS = 0.3533% FLOPs, 256, 512, kernel_size=(1, 1), stride=(2, 2), bias=False)
        (1): BatchNorm2d(0 = 0% Params, 0 MACs = 0% MACs, 4.19 MFLOPS = 0.0014% FLOPs, 512, eps=1e-05, momentum=0.1, affine=True, track_running_stats=True)
      )
    )
    (1): BasicBlock(
      0 = 0% Params, 19.33 GMACs = 12.7489% MACs, 38.67 GFLOPS = 12.7246% FLOPs
      (conv1): Conv2d(0 = 0% Params, 9.66 GMACs = 6.3744% MACs, 19.33 GFLOPS = 6.3602% FLOPs, 512, 512, kernel_size=(3, 3), stride=(1, 1), padding=(1, 1), bias=False)
      (bn1): BatchNorm2d(0 = 0% Params, 0 MACs = 0% MACs, 4.19 MFLOPS = 0.0014% FLOPs, 512, eps=1e-05, momentum=0.1, affine=True, track_running_stats=True)
      (relu): ReLU(0 = 0% Params, 0 MACs = 0% MACs, 4.19 MFLOPS = 0.0014% FLOPs, inplace=True)
      (conv2): Conv2d(0 = 0% Params, 9.66 GMACs = 6.3744% MACs, 19.33 GFLOPS = 6.3602% FLOPs, 512, 512, kernel_size=(3, 3), stride=(1, 1), padding=(1, 1), bias=False)
      (bn2): BatchNorm2d(0 = 0% Params, 0 MACs = 0% MACs, 4.19 MFLOPS = 0.0014% FLOPs, 512, eps=1e-05, momentum=0.1, affine=True, track_running_stats=True)
    )
  )
  (avgpool): AdaptiveAvgPool2d(0 = 0% Params, 0 MACs = 0% MACs, 2.1 MFLOPS = 0.0007% FLOPs, output_size=(1, 1))
  (fc): Linear(22.06 K = 100% Params, 1.41 MMACs = 0.0009% MACs, 2.82 MFLOPS = 0.0009% FLOPs, in_features=512, out_features=43, bias=True)
)
---------------------------------------------------------------------------------------------------
Epoch 1/6: 100%|██████████| 42/42 [00:09<00:00,  4.28it/s]
Epoch 1/6: 100%|██████████| 5/5 [00:02<00:00,  2.30it/s]
Epoch 1/6
Train Loss: 4.5557 Train Accuracy: 0.0534
Val Loss: 4.6042 Val Accuracy: 0.0473
…
params, percentage of total params, MACs, percentage of total MACs, FLOPS, percentage of total FLOPs

Note: 1. A module can have torch.nn.module or torch.nn.functional to compute logits (e.g. CrossEntropyLoss). 
 They are not counted as submodules in calflops and not to be printed out. However they make up the difference between a parent's MACs and the sum of its submodules'.
2. Number of floating-point operations is a theoretical estimation, thus FLOPS computed using that could be larger than the maximum system throughput.

ResNet(
  284.71 K = 100% Params, 151.62 GMACs = 100% MACs, 303.91 GFLOPS = 100% FLOPs
  (conv1): Conv2d(0 = 0% Params, 9.87 GMACs = 6.5065% MACs, 19.73 GFLOPS = 6.492% FLOPs, 3, 64, kernel_size=(7, 7), stride=(2, 2), padding=(3, 3), bias=False)
  (bn1): BatchNorm2d(0 = 0% Params, 0 MACs = 0% MACs, 134.22 MFLOPS = 0.0442% FLOPs, 64, eps=1e-05, momentum=0.1, affine=True, track_running_stats=True)
  (relu): ReLU(0 = 0% Params, 0 MACs = 0% MACs, 67.11 MFLOPS = 0.0221% FLOPs, inplace=True)
  (maxpool): MaxPool2d(0 = 0% Params, 0 MACs = 0% MACs, 67.11 MFLOPS = 0.0221% FLOPs, kernel_size=3, stride=2, padding=1, dilation=1, ceil_mode=False)
  (layer1): Sequential(
    0 = 0% Params, 38.65 GMACs = 25.4949% MACs, 77.51 GFLOPS = 25.5044% FLOPs
    (0): BasicBlock(
      0 = 0% Params, 19.33 GMACs = 12.7475% MACs, 38.76 GFLOPS = 12.7522% FLOPs
      (conv1): Conv2d(0 = 0% Params, 9.66 GMACs = 6.3737% MACs, 19.33 GFLOPS = 6.3595% FLOPs, 64, 64, kernel_size=(3, 3), stride=(1, 1), padding=(1, 1), bias=False)
      (bn1): BatchNorm2d(0 = 0% Params, 0 MACs = 0% MACs, 33.55 MFLOPS = 0.011% FLOPs, 64, eps=1e-05, momentum=0.1, affine=True, track_running_stats=True)
      (relu): ReLU(0 = 0% Params, 0 MACs = 0% MACs, 33.55 MFLOPS = 0.011% FLOPs, inplace=True)
      (conv2): Conv2d(0 = 0% Params, 9.66 GMACs = 6.3737% MACs, 19.33 GFLOPS = 6.3595% FLOPs, 64, 64, kernel_size=(3, 3), stride=(1, 1), padding=(1, 1), bias=False)
      (bn2): BatchNorm2d(0 = 0% Params, 0 MACs = 0% MACs, 33.55 MFLOPS = 0.011% FLOPs, 64, eps=1e-05, momentum=0.1, affine=True, track_running_stats=True)
    )
    (1): BasicBlock(
      0 = 0% Params, 19.33 GMACs = 12.7475% MACs, 38.76 GFLOPS = 12.7522% FLOPs
      (conv1): Conv2d(0 = 0% Params, 9.66 GMACs = 6.3737% MACs, 19.33 GFLOPS = 6.3595% FLOPs, 64, 64, kernel_size=(3, 3), stride=(1, 1), padding=(1, 1), bias=False)
      (bn1): BatchNorm2d(0 = 0% Params, 0 MACs = 0% MACs, 33.55 MFLOPS = 0.011% FLOPs, 64, eps=1e-05, momentum=0.1, affine=True, track_running_stats=True)
      (relu): ReLU(0 = 0% Params, 0 MACs = 0% MACs, 33.55 MFLOPS = 0.011% FLOPs, inplace=True)
      (conv2): Conv2d(0 = 0% Params, 9.66 GMACs = 6.3737% MACs, 19.33 GFLOPS = 6.3595% FLOPs, 64, 64, kernel_size=(3, 3), stride=(1, 1), padding=(1, 1), bias=False)
      (bn2): BatchNorm2d(0 = 0% Params, 0 MACs = 0% MACs, 33.55 MFLOPS = 0.011% FLOPs, 64, eps=1e-05, momentum=0.1, affine=True, track_running_stats=True)
    )
  )
  (layer2): Sequential(
    0 = 0% Params, 34.36 GMACs = 22.6622% MACs, 68.84 GFLOPS = 22.6503% FLOPs
    (0): BasicBlock(
      0 = 0% Params, 15.03 GMACs = 9.9147% MACs, 30.13 GFLOPS = 9.9147% FLOPs
      (conv1): Conv2d(0 = 0% Params, 4.83 GMACs = 3.1869% MACs, 9.66 GFLOPS = 3.1798% FLOPs, 64, 128, kernel_size=(3, 3), stride=(2, 2), padding=(1, 1), bias=False)
      (bn1): BatchNorm2d(0 = 0% Params, 0 MACs = 0% MACs, 16.78 MFLOPS = 0.0055% FLOPs, 128, eps=1e-05, momentum=0.1, affine=True, track_running_stats=True)
      (relu): ReLU(0 = 0% Params, 0 MACs = 0% MACs, 16.78 MFLOPS = 0.0055% FLOPs, inplace=True)
      (conv2): Conv2d(0 = 0% Params, 9.66 GMACs = 6.3737% MACs, 19.33 GFLOPS = 6.3595% FLOPs, 128, 128, kernel_size=(3, 3), stride=(1, 1), padding=(1, 1), bias=False)
      (bn2): BatchNorm2d(0 = 0% Params, 0 MACs = 0% MACs, 16.78 MFLOPS = 0.0055% FLOPs, 128, eps=1e-05, momentum=0.1, affine=True, track_running_stats=True)
      (downsample): Sequential(
        0 = 0% Params, 536.87 MMACs = 0.3541% MACs, 1.09 GFLOPS = 0.3588% FLOPs
        (0): Conv2d(0 = 0% Params, 536.87 MMACs = 0.3541% MACs, 1.07 GFLOPS = 0.3533% FLOPs, 64, 128, kernel_size=(1, 1), stride=(2, 2), bias=False)
        (1): BatchNorm2d(0 = 0% Params, 0 MACs = 0% MACs, 16.78 MFLOPS = 0.0055% FLOPs, 128, eps=1e-05, momentum=0.1, affine=True, track_running_stats=True)
      )
    )
    (1): BasicBlock(
      0 = 0% Params, 19.33 GMACs = 12.7475% MACs, 38.71 GFLOPS = 12.7356% FLOPs
      (conv1): Conv2d(0 = 0% Params, 9.66 GMACs = 6.3737% MACs, 19.33 GFLOPS = 6.3595% FLOPs, 128, 128, kernel_size=(3, 3), stride=(1, 1), padding=(1, 1), bias=False)
      (bn1): BatchNorm2d(0 = 0% Params, 0 MACs = 0% MACs, 16.78 MFLOPS = 0.0055% FLOPs, 128, eps=1e-05, momentum=0.1, affine=True, track_running_stats=True)
      (relu): ReLU(0 = 0% Params, 0 MACs = 0% MACs, 16.78 MFLOPS = 0.0055% FLOPs, inplace=True)
      (conv2): Conv2d(0 = 0% Params, 9.66 GMACs = 6.3737% MACs, 19.33 GFLOPS = 6.3595% FLOPs, 128, 128, kernel_size=(3, 3), stride=(1, 1), padding=(1, 1), bias=False)
      (bn2): BatchNorm2d(0 = 0% Params, 0 MACs = 0% MACs, 16.78 MFLOPS = 0.0055% FLOPs, 128, eps=1e-05, momentum=0.1, affine=True, track_running_stats=True)
    )
  )
  (layer3): Sequential(
    0 = 0% Params, 34.36 GMACs = 22.6622% MACs, 68.78 GFLOPS = 22.631% FLOPs
    (0): BasicBlock(
      0 = 0% Params, 15.03 GMACs = 9.9147% MACs, 30.1 GFLOPS = 9.9036% FLOPs
      (conv1): Conv2d(0 = 0% Params, 4.83 GMACs = 3.1869% MACs, 9.66 GFLOPS = 3.1798% FLOPs, 128, 256, kernel_size=(3, 3), stride=(2, 2), padding=(1, 1), bias=False)
      (bn1): BatchNorm2d(0 = 0% Params, 0 MACs = 0% MACs, 8.39 MFLOPS = 0.0028% FLOPs, 256, eps=1e-05, momentum=0.1, affine=True, track_running_stats=True)
      (relu): ReLU(0 = 0% Params, 0 MACs = 0% MACs, 8.39 MFLOPS = 0.0028% FLOPs, inplace=True)
      (conv2): Conv2d(0 = 0% Params, 9.66 GMACs = 6.3737% MACs, 19.33 GFLOPS = 6.3595% FLOPs, 256, 256, kernel_size=(3, 3), stride=(1, 1), padding=(1, 1), bias=False)
      (bn2): BatchNorm2d(0 = 0% Params, 0 MACs = 0% MACs, 8.39 MFLOPS = 0.0028% FLOPs, 256, eps=1e-05, momentum=0.1, affine=True, track_running_stats=True)
      (downsample): Sequential(
        0 = 0% Params, 536.87 MMACs = 0.3541% MACs, 1.08 GFLOPS = 0.3561% FLOPs
        (0): Conv2d(0 = 0% Params, 536.87 MMACs = 0.3541% MACs, 1.07 GFLOPS = 0.3533% FLOPs, 128, 256, kernel_size=(1, 1), stride=(2, 2), bias=False)
        (1): BatchNorm2d(0 = 0% Params, 0 MACs = 0% MACs, 8.39 MFLOPS = 0.0028% FLOPs, 256, eps=1e-05, momentum=0.1, affine=True, track_running_stats=True)
      )
    )
    (1): BasicBlock(
      0 = 0% Params, 19.33 GMACs = 12.7475% MACs, 38.68 GFLOPS = 12.7273% FLOPs
      (conv1): Conv2d(0 = 0% Params, 9.66 GMACs = 6.3737% MACs, 19.33 GFLOPS = 6.3595% FLOPs, 256, 256, kernel_size=(3, 3), stride=(1, 1), padding=(1, 1), bias=False)
      (bn1): BatchNorm2d(0 = 0% Params, 0 MACs = 0% MACs, 8.39 MFLOPS = 0.0028% FLOPs, 256, eps=1e-05, momentum=0.1, affine=True, track_running_stats=True)
      (relu): ReLU(0 = 0% Params, 0 MACs = 0% MACs, 8.39 MFLOPS = 0.0028% FLOPs, inplace=True)
      (conv2): Conv2d(0 = 0% Params, 9.66 GMACs = 6.3737% MACs, 19.33 GFLOPS = 6.3595% FLOPs, 256, 256, kernel_size=(3, 3), stride=(1, 1), padding=(1, 1), bias=False)
      (bn2): BatchNorm2d(0 = 0% Params, 0 MACs = 0% MACs, 8.39 MFLOPS = 0.0028% FLOPs, 256, eps=1e-05, momentum=0.1, affine=True, track_running_stats=True)
    )
  )
  (layer4): Sequential(
    0 = 0% Params, 34.36 GMACs = 22.6622% MACs, 68.75 GFLOPS = 22.6213% FLOPs
    (0): BasicBlock(
      0 = 0% Params, 15.03 GMACs = 9.9147% MACs, 30.08 GFLOPS = 9.8981% FLOPs
      (conv1): Conv2d(0 = 0% Params, 4.83 GMACs = 3.1869% MACs, 9.66 GFLOPS = 3.1798% FLOPs, 256, 512, kernel_size=(3, 3), stride=(2, 2), padding=(1, 1), bias=False)
      (bn1): BatchNorm2d(0 = 0% Params, 0 MACs = 0% MACs, 4.19 MFLOPS = 0.0014% FLOPs, 512, eps=1e-05, momentum=0.1, affine=True, track_running_stats=True)
      (relu): ReLU(0 = 0% Params, 0 MACs = 0% MACs, 4.19 MFLOPS = 0.0014% FLOPs, inplace=True)
      (conv2): Conv2d(0 = 0% Params, 9.66 GMACs = 6.3737% MACs, 19.33 GFLOPS = 6.3595% FLOPs, 512, 512, kernel_size=(3, 3), stride=(1, 1), padding=(1, 1), bias=False)
      (bn2): BatchNorm2d(0 = 0% Params, 0 MACs = 0% MACs, 4.19 MFLOPS = 0.0014% FLOPs, 512, eps=1e-05, momentum=0.1, affine=True, track_running_stats=True)
      (downsample): Sequential(
        0 = 0% Params, 536.87 MMACs = 0.3541% MACs, 1.08 GFLOPS = 0.3547% FLOPs
        (0): Conv2d(0 = 0% Params, 536.87 MMACs = 0.3541% MACs, 1.07 GFLOPS = 0.3533% FLOPs, 256, 512, kernel_size=(1, 1), stride=(2, 2), bias=False)
        (1): BatchNorm2d(0 = 0% Params, 0 MACs = 0% MACs, 4.19 MFLOPS = 0.0014% FLOPs, 512, eps=1e-05, momentum=0.1, affine=True, track_running_stats=True)
      )
    )
    (1): BasicBlock(
      0 = 0% Params, 19.33 GMACs = 12.7475% MACs, 38.67 GFLOPS = 12.7232% FLOPs
      (conv1): Conv2d(0 = 0% Params, 9.66 GMACs = 6.3737% MACs, 19.33 GFLOPS = 6.3595% FLOPs, 512, 512, kernel_size=(3, 3), stride=(1, 1), padding=(1, 1), bias=False)
      (bn1): BatchNorm2d(0 = 0% Params, 0 MACs = 0% MACs, 4.19 MFLOPS = 0.0014% FLOPs, 512, eps=1e-05, momentum=0.1, affine=True, track_running_stats=True)
      (relu): ReLU(0 = 0% Params, 0 MACs = 0% MACs, 4.19 MFLOPS = 0.0014% FLOPs, inplace=True)
      (conv2): Conv2d(0 = 0% Params, 9.66 GMACs = 6.3737% MACs, 19.33 GFLOPS = 6.3595% FLOPs, 512, 512, kernel_size=(3, 3), stride=(1, 1), padding=(1, 1), bias=False)
      (bn2): BatchNorm2d(0 = 0% Params, 0 MACs = 0% MACs, 4.19 MFLOPS = 0.0014% FLOPs, 512, eps=1e-05, momentum=0.1, affine=True, track_running_stats=True)
    )
  )
  (avgpool): AdaptiveAvgPool2d(0 = 0% Params, 0 MACs = 0% MACs, 2.1 MFLOPS = 0.0007% FLOPs, output_size=(1, 1))
  (fc): Sequential(
    284.71 K = 100% Params, 18.19 MMACs = 0.012% MACs, 36.41 MFLOPS = 0.012% FLOPs
    (0): Linear(262.66 K = 92.2523% Params, 16.78 MMACs = 0.0111% MACs, 33.55 MFLOPS = 0.011% FLOPs, in_features=512, out_features=512, bias=True)
    (1): ReLU(0 = 0% Params, 0 MACs = 0% MACs, 32.77 KFLOPS = 0% FLOPs)
    (2): Linear(22.06 K = 7.7477% Params, 1.41 MMACs = 0.0009% MACs, 2.82 MFLOPS = 0.0009% FLOPs, in_features=512, out_features=43, bias=True)
  )
)
---------------------------------------------------------------------------------------------------
Epoch 1/6: 100%|██████████| 42/42 [00:11<00:00,  3.71it/s]
Epoch 1/6: 100%|██████████| 5/5 [00:01<00:00,  3.61it/s]
Epoch 1/6
Train Loss: 4.0987 Train Accuracy: 0.0515
…
params, percentage of total params, MACs, percentage of total MACs, FLOPS, percentage of total FLOPs

Note: 1. A module can have torch.nn.module or torch.nn.functional to compute logits (e.g. CrossEntropyLoss). 
 They are not counted as submodules in calflops and not to be printed out. However they make up the difference between a parent's MACs and the sum of its submodules'.
2. Number of floating-point operations is a theoretical estimation, thus FLOPS computed using that could be larger than the maximum system throughput.

ResNet(
  11.46 M = 100% Params, 151.62 GMACs = 100% MACs, 303.91 GFLOPS = 100% FLOPs
  (conv1): Conv2d(9.41 K = 0.0821% Params, 9.87 GMACs = 6.5065% MACs, 19.73 GFLOPS = 6.492% FLOPs, 3, 64, kernel_size=(7, 7), stride=(2, 2), padding=(3, 3), bias=False)
  (bn1): BatchNorm2d(128 = 0.0011% Params, 0 MACs = 0% MACs, 134.22 MFLOPS = 0.0442% FLOPs, 64, eps=1e-05, momentum=0.1, affine=True, track_running_stats=True)
  (relu): ReLU(0 = 0% Params, 0 MACs = 0% MACs, 67.11 MFLOPS = 0.0221% FLOPs, inplace=True)
  (maxpool): MaxPool2d(0 = 0% Params, 0 MACs = 0% MACs, 67.11 MFLOPS = 0.0221% FLOPs, kernel_size=3, stride=2, padding=1, dilation=1, ceil_mode=False)
  (layer1): Sequential(
    147.97 K = 1.291% Params, 38.65 GMACs = 25.4949% MACs, 77.51 GFLOPS = 25.5044% FLOPs
    (0): BasicBlock(
      73.98 K = 0.6455% Params, 19.33 GMACs = 12.7475% MACs, 38.76 GFLOPS = 12.7522% FLOPs
      (conv1): Conv2d(36.86 K = 0.3216% Params, 9.66 GMACs = 6.3737% MACs, 19.33 GFLOPS = 6.3595% FLOPs, 64, 64, kernel_size=(3, 3), stride=(1, 1), padding=(1, 1), bias=False)
      (bn1): BatchNorm2d(128 = 0.0011% Params, 0 MACs = 0% MACs, 33.55 MFLOPS = 0.011% FLOPs, 64, eps=1e-05, momentum=0.1, affine=True, track_running_stats=True)
      (relu): ReLU(0 = 0% Params, 0 MACs = 0% MACs, 33.55 MFLOPS = 0.011% FLOPs, inplace=True)
      (conv2): Conv2d(36.86 K = 0.3216% Params, 9.66 GMACs = 6.3737% MACs, 19.33 GFLOPS = 6.3595% FLOPs, 64, 64, kernel_size=(3, 3), stride=(1, 1), padding=(1, 1), bias=False)
      (bn2): BatchNorm2d(128 = 0.0011% Params, 0 MACs = 0% MACs, 33.55 MFLOPS = 0.011% FLOPs, 64, eps=1e-05, momentum=0.1, affine=True, track_running_stats=True)
    )
    (1): BasicBlock(
      73.98 K = 0.6455% Params, 19.33 GMACs = 12.7475% MACs, 38.76 GFLOPS = 12.7522% FLOPs
      (conv1): Conv2d(36.86 K = 0.3216% Params, 9.66 GMACs = 6.3737% MACs, 19.33 GFLOPS = 6.3595% FLOPs, 64, 64, kernel_size=(3, 3), stride=(1, 1), padding=(1, 1), bias=False)
      (bn1): BatchNorm2d(128 = 0.0011% Params, 0 MACs = 0% MACs, 33.55 MFLOPS = 0.011% FLOPs, 64, eps=1e-05, momentum=0.1, affine=True, track_running_stats=True)
      (relu): ReLU(0 = 0% Params, 0 MACs = 0% MACs, 33.55 MFLOPS = 0.011% FLOPs, inplace=True)
      (conv2): Conv2d(36.86 K = 0.3216% Params, 9.66 GMACs = 6.3737% MACs, 19.33 GFLOPS = 6.3595% FLOPs, 64, 64, kernel_size=(3, 3), stride=(1, 1), padding=(1, 1), bias=False)
      (bn2): BatchNorm2d(128 = 0.0011% Params, 0 MACs = 0% MACs, 33.55 MFLOPS = 0.011% FLOPs, 64, eps=1e-05, momentum=0.1, affine=True, track_running_stats=True)
    )
  )
  (layer2): Sequential(
    525.57 K = 4.5856% Params, 34.36 GMACs = 22.6622% MACs, 68.84 GFLOPS = 22.6503% FLOPs
    (0): BasicBlock(
      230.14 K = 2.008% Params, 15.03 GMACs = 9.9147% MACs, 30.13 GFLOPS = 9.9147% FLOPs
      (conv1): Conv2d(73.73 K = 0.6433% Params, 4.83 GMACs = 3.1869% MACs, 9.66 GFLOPS = 3.1798% FLOPs, 64, 128, kernel_size=(3, 3), stride=(2, 2), padding=(1, 1), bias=False)
      (bn1): BatchNorm2d(256 = 0.0022% Params, 0 MACs = 0% MACs, 16.78 MFLOPS = 0.0055% FLOPs, 128, eps=1e-05, momentum=0.1, affine=True, track_running_stats=True)
      (relu): ReLU(0 = 0% Params, 0 MACs = 0% MACs, 16.78 MFLOPS = 0.0055% FLOPs, inplace=True)
      (conv2): Conv2d(147.46 K = 1.2866% Params, 9.66 GMACs = 6.3737% MACs, 19.33 GFLOPS = 6.3595% FLOPs, 128, 128, kernel_size=(3, 3), stride=(1, 1), padding=(1, 1), bias=False)
      (bn2): BatchNorm2d(256 = 0.0022% Params, 0 MACs = 0% MACs, 16.78 MFLOPS = 0.0055% FLOPs, 128, eps=1e-05, momentum=0.1, affine=True, track_running_stats=True)
      (downsample): Sequential(
        8.45 K = 0.0737% Params, 536.87 MMACs = 0.3541% MACs, 1.09 GFLOPS = 0.3588% FLOPs
        (0): Conv2d(8.19 K = 0.0715% Params, 536.87 MMACs = 0.3541% MACs, 1.07 GFLOPS = 0.3533% FLOPs, 64, 128, kernel_size=(1, 1), stride=(2, 2), bias=False)
        (1): BatchNorm2d(256 = 0.0022% Params, 0 MACs = 0% MACs, 16.78 MFLOPS = 0.0055% FLOPs, 128, eps=1e-05, momentum=0.1, affine=True, track_running_stats=True)
      )
    )
    (1): BasicBlock(
      295.42 K = 2.5776% Params, 19.33 GMACs = 12.7475% MACs, 38.71 GFLOPS = 12.7356% FLOPs
      (conv1): Conv2d(147.46 K = 1.2866% Params, 9.66 GMACs = 6.3737% MACs, 19.33 GFLOPS = 6.3595% FLOPs, 128, 128, kernel_size=(3, 3), stride=(1, 1), padding=(1, 1), bias=False)
      (bn1): BatchNorm2d(256 = 0.0022% Params, 0 MACs = 0% MACs, 16.78 MFLOPS = 0.0055% FLOPs, 128, eps=1e-05, momentum=0.1, affine=True, track_running_stats=True)
      (relu): ReLU(0 = 0% Params, 0 MACs = 0% MACs, 16.78 MFLOPS = 0.0055% FLOPs, inplace=True)
      (conv2): Conv2d(147.46 K = 1.2866% Params, 9.66 GMACs = 6.3737% MACs, 19.33 GFLOPS = 6.3595% FLOPs, 128, 128, kernel_size=(3, 3), stride=(1, 1), padding=(1, 1), bias=False)
      (bn2): BatchNorm2d(256 = 0.0022% Params, 0 MACs = 0% MACs, 16.78 MFLOPS = 0.0055% FLOPs, 128, eps=1e-05, momentum=0.1, affine=True, track_running_stats=True)
    )
  )
  (layer3): Sequential(
    2.1 M = 18.3201% Params, 34.36 GMACs = 22.6622% MACs, 68.78 GFLOPS = 22.631% FLOPs
    (0): BasicBlock(
      919.04 K = 8.0187% Params, 15.03 GMACs = 9.9147% MACs, 30.1 GFLOPS = 9.9036% FLOPs
      (conv1): Conv2d(294.91 K = 2.5731% Params, 4.83 GMACs = 3.1869% MACs, 9.66 GFLOPS = 3.1798% FLOPs, 128, 256, kernel_size=(3, 3), stride=(2, 2), padding=(1, 1), bias=False)
      (bn1): BatchNorm2d(512 = 0.0045% Params, 0 MACs = 0% MACs, 8.39 MFLOPS = 0.0028% FLOPs, 256, eps=1e-05, momentum=0.1, affine=True, track_running_stats=True)
      (relu): ReLU(0 = 0% Params, 0 MACs = 0% MACs, 8.39 MFLOPS = 0.0028% FLOPs, inplace=True)
      (conv2): Conv2d(589.82 K = 5.1463% Params, 9.66 GMACs = 6.3737% MACs, 19.33 GFLOPS = 6.3595% FLOPs, 256, 256, kernel_size=(3, 3), stride=(1, 1), padding=(1, 1), bias=False)
      (bn2): BatchNorm2d(512 = 0.0045% Params, 0 MACs = 0% MACs, 8.39 MFLOPS = 0.0028% FLOPs, 256, eps=1e-05, momentum=0.1, affine=True, track_running_stats=True)
      (downsample): Sequential(
        33.28 K = 0.2904% Params, 536.87 MMACs = 0.3541% MACs, 1.08 GFLOPS = 0.3561% FLOPs
        (0): Conv2d(32.77 K = 0.2859% Params, 536.87 MMACs = 0.3541% MACs, 1.07 GFLOPS = 0.3533% FLOPs, 128, 256, kernel_size=(1, 1), stride=(2, 2), bias=False)
        (1): BatchNorm2d(512 = 0.0045% Params, 0 MACs = 0% MACs, 8.39 MFLOPS = 0.0028% FLOPs, 256, eps=1e-05, momentum=0.1, affine=True, track_running_stats=True)
      )
    )
    (1): BasicBlock(
      1.18 M = 10.3014% Params, 19.33 GMACs = 12.7475% MACs, 38.68 GFLOPS = 12.7273% FLOPs
      (conv1): Conv2d(589.82 K = 5.1463% Params, 9.66 GMACs = 6.3737% MACs, 19.33 GFLOPS = 6.3595% FLOPs, 256, 256, kernel_size=(3, 3), stride=(1, 1), padding=(1, 1), bias=False)
      (bn1): BatchNorm2d(512 = 0.0045% Params, 0 MACs = 0% MACs, 8.39 MFLOPS = 0.0028% FLOPs, 256, eps=1e-05, momentum=0.1, affine=True, track_running_stats=True)
      (relu): ReLU(0 = 0% Params, 0 MACs = 0% MACs, 8.39 MFLOPS = 0.0028% FLOPs, inplace=True)
      (conv2): Conv2d(589.82 K = 5.1463% Params, 9.66 GMACs = 6.3737% MACs, 19.33 GFLOPS = 6.3595% FLOPs, 256, 256, kernel_size=(3, 3), stride=(1, 1), padding=(1, 1), bias=False)
      (bn2): BatchNorm2d(512 = 0.0045% Params, 0 MACs = 0% MACs, 8.39 MFLOPS = 0.0028% FLOPs, 256, eps=1e-05, momentum=0.1, affine=True, track_running_stats=True)
    )
  )
  (layer4): Sequential(
    8.39 M = 73.2359% Params, 34.36 GMACs = 22.6622% MACs, 68.75 GFLOPS = 22.6213% FLOPs
    (0): BasicBlock(
      3.67 M = 32.0479% Params, 15.03 GMACs = 9.9147% MACs, 30.08 GFLOPS = 9.8981% FLOPs
      (conv1): Conv2d(1.18 M = 10.2925% Params, 4.83 GMACs = 3.1869% MACs, 9.66 GFLOPS = 3.1798% FLOPs, 256, 512, kernel_size=(3, 3), stride=(2, 2), padding=(1, 1), bias=False)
      (bn1): BatchNorm2d(1.02 K = 0.0089% Params, 0 MACs = 0% MACs, 4.19 MFLOPS = 0.0014% FLOPs, 512, eps=1e-05, momentum=0.1, affine=True, track_running_stats=True)
      (relu): ReLU(0 = 0% Params, 0 MACs = 0% MACs, 4.19 MFLOPS = 0.0014% FLOPs, inplace=True)
      (conv2): Conv2d(2.36 M = 20.585% Params, 9.66 GMACs = 6.3737% MACs, 19.33 GFLOPS = 6.3595% FLOPs, 512, 512, kernel_size=(3, 3), stride=(1, 1), padding=(1, 1), bias=False)
      (bn2): BatchNorm2d(1.02 K = 0.0089% Params, 0 MACs = 0% MACs, 4.19 MFLOPS = 0.0014% FLOPs, 512, eps=1e-05, momentum=0.1, affine=True, track_running_stats=True)
      (downsample): Sequential(
        132.1 K = 1.1525% Params, 536.87 MMACs = 0.3541% MACs, 1.08 GFLOPS = 0.3547% FLOPs
        (0): Conv2d(131.07 K = 1.1436% Params, 536.87 MMACs = 0.3541% MACs, 1.07 GFLOPS = 0.3533% FLOPs, 256, 512, kernel_size=(1, 1), stride=(2, 2), bias=False)
        (1): BatchNorm2d(1.02 K = 0.0089% Params, 0 MACs = 0% MACs, 4.19 MFLOPS = 0.0014% FLOPs, 512, eps=1e-05, momentum=0.1, affine=True, track_running_stats=True)
      )
    )
    (1): BasicBlock(
      4.72 M = 41.1879% Params, 19.33 GMACs = 12.7475% MACs, 38.67 GFLOPS = 12.7232% FLOPs
      (conv1): Conv2d(2.36 M = 20.585% Params, 9.66 GMACs = 6.3737% MACs, 19.33 GFLOPS = 6.3595% FLOPs, 512, 512, kernel_size=(3, 3), stride=(1, 1), padding=(1, 1), bias=False)
      (bn1): BatchNorm2d(1.02 K = 0.0089% Params, 0 MACs = 0% MACs, 4.19 MFLOPS = 0.0014% FLOPs, 512, eps=1e-05, momentum=0.1, affine=True, track_running_stats=True)
      (relu): ReLU(0 = 0% Params, 0 MACs = 0% MACs, 4.19 MFLOPS = 0.0014% FLOPs, inplace=True)
      (conv2): Conv2d(2.36 M = 20.585% Params, 9.66 GMACs = 6.3737% MACs, 19.33 GFLOPS = 6.3595% FLOPs, 512, 512, kernel_size=(3, 3), stride=(1, 1), padding=(1, 1), bias=False)
      (bn2): BatchNorm2d(1.02 K = 0.0089% Params, 0 MACs = 0% MACs, 4.19 MFLOPS = 0.0014% FLOPs, 512, eps=1e-05, momentum=0.1, affine=True, track_running_stats=True)
    )
  )
  (avgpool): AdaptiveAvgPool2d(0 = 0% Params, 0 MACs = 0% MACs, 2.1 MFLOPS = 0.0007% FLOPs, output_size=(1, 1))
  (fc): Sequential(
    284.71 K = 2.4842% Params, 18.19 MMACs = 0.012% MACs, 36.41 MFLOPS = 0.012% FLOPs
    (0): Linear(262.66 K = 2.2917% Params, 16.78 MMACs = 0.0111% MACs, 33.55 MFLOPS = 0.011% FLOPs, in_features=512, out_features=512, bias=True)
    (1): ReLU(0 = 0% Params, 0 MACs = 0% MACs, 32.77 KFLOPS = 0% FLOPs)
    (2): Linear(22.06 K = 0.1925% Params, 1.41 MMACs = 0.0009% MACs, 2.82 MFLOPS = 0.0009% FLOPs, in_features=512, out_features=43, bias=True)
  )
)
---------------------------------------------------------------------------------------------------
Epoch 1/24: 100%|██████████| 42/42 [00:14<00:00,  2.95it/s]
Epoch 1/24: 100%|██████████| 5/5 [00:01<00:00,  3.32it/s]
Epoch 1/24
Train Loss: 1.6664 Train Accuracy: 0.5879
…
